{"format": "graph-model", "generatedBy": "2.6.0", "convertedBy": "TensorFlow.js Converter v3.12.0", "signature": {"inputs": {"random_flip_1_input": {"name": "random_flip_1_input:0", "dtype": "DT_FLOAT", "tensorShape": {"dim": [{"size": "-1"}, {"size": "150"}, {"size": "150"}, {"size": "3"}]}}}, "outputs": {"dense_2": {"name": "Identity:0", "dtype": "DT_FLOAT", "tensorShape": {"dim": [{"size": "-1"}, {"size": "4"}]}}}}, "modelTopology": {"node": [{"name": "StatefulPartitionedCall/sequential_1/random_crop_1/stack_1/0", "op": "Const", "attr": {"value": {"tensor": {"dtype": "DT_INT32", "tensorShape": {}}}, "dtype": {"type": "DT_INT32"}}}, {"name": "StatefulPartitionedCall/sequential_1/random_crop_1/sub/y", "op": "Const", "attr": {"dtype": {"type": "DT_INT32"}, "value": {"tensor": {"dtype": "DT_INT32", "tensorShape": {}}}}}, {"name": "ConstantFolding/StatefulPartitionedCall/sequential_1/random_crop_1/truediv_1_recip", "op": "Const", "attr": {"dtype": {"type": "DT_DOUBLE"}, "value": {"tensor": {"dtype": "DT_DOUBLE", "tensorShape": {}}}}}, {"name": "StatefulPartitionedCall/sequential_1/random_crop_1/Greater/y", "op": "Const", "attr": {"value": {"tensor": {"dtype": "DT_DOUBLE", "tensorShape": {}}}, "dtype": {"type": "DT_DOUBLE"}}}, {"name": "StatefulPartitionedCall/sequential_1/random_crop_1/strided_slice_1/stack", "op": "Const", "attr": {"value": {"tensor": {"dtype": "DT_INT32", "tensorShape": {"dim": [{"size": "1"}]}}}, "dtype": {"type": "DT_INT32"}}}, {"name": "StatefulPartitionedCall/sequential_1/random_crop_1/strided_slice_1/stack_1", "op": "Const", "attr": {"value": {"tensor": {"dtype": "DT_INT32", "tensorShape": {"dim": [{"size": "1"}]}}}, "dtype": {"type": "DT_INT32"}}}, {"name": "StatefulPartitionedCall/sequential_1/random_crop_1/strided_slice_1/stack_2", "op": "Const", "attr": {"value": {"tensor": {"dtype": "DT_INT32", "tensorShape": {"dim": [{"size": "1"}]}}}, "dtype": {"type": "DT_INT32"}}}, {"name": "StatefulPartitionedCall/sequential_1/random_crop_1/strided_slice/stack", "op": "Const", "attr": {"value": {"tensor": {"dtype": "DT_INT32", "tensorShape": {"dim": [{"size": "1"}]}}}, "dtype": {"type": "DT_INT32"}}}, {"name": "StatefulPartitionedCall/sequential_1/random_crop_1/strided_slice/stack_1", "op": "Const", "attr": {"dtype": {"type": "DT_INT32"}, "value": {"tensor": {"dtype": "DT_INT32", "tensorShape": {"dim": [{"size": "1"}]}}}}}, {"name": "StatefulPartitionedCall/sequential_1/random_crop_1/strided_slice/stack_2", "op": "Const", "attr": {"value": {"tensor": {"dtype": "DT_INT32", "tensorShape": {"dim": [{"size": "1"}]}}}, "dtype": {"type": "DT_INT32"}}}, {"name": "StatefulPartitionedCall/sequential_1/random_crop_1/sub_1/y", "op": "Const", "attr": {"value": {"tensor": {"dtype": "DT_INT32", "tensorShape": {}}}, "dtype": {"type": "DT_INT32"}}}, {"name": "ConstantFolding/StatefulPartitionedCall/sequential_1/random_crop_1/truediv_2_recip", "op": "Const", "attr": {"value": {"tensor": {"dtype": "DT_DOUBLE", "tensorShape": {}}}, "dtype": {"type": "DT_DOUBLE"}}}, {"name": "StatefulPartitionedCall/sequential_1/random_crop_1/stack_1/3", "op": "Const", "attr": {"value": {"tensor": {"dtype": "DT_INT32", "tensorShape": {}}}, "dtype": {"type": "DT_INT32"}}}, {"name": "StatefulPartitionedCall/sequential_1/random_crop_1/stack_2", "op": "Const", "attr": {"dtype": {"type": "DT_INT32"}, "value": {"tensor": {"dtype": "DT_INT32", "tensorShape": {"dim": [{"size": "4"}]}}}}}, {"name": "StatefulPartitionedCall/sequential_1/conv2d/Conv2D/ArithmeticOptimizer/FoldMultiplyIntoConv_scaled_StatefulPartitionedCall/sequential_1/conv2d/Conv2D_ReadVariableOp", "op": "Const", "attr": {"dtype": {"type": "DT_FLOAT"}, "value": {"tensor": {"dtype": "DT_FLOAT", "tensorShape": {"dim": [{"size": "3"}, {"size": "3"}, {"size": "3"}, {"size": "16"}]}}}}}, {"name": "StatefulPartitionedCall/sequential_1/conv2d/BiasAdd/ReadVariableOp", "op": "Const", "attr": {"value": {"tensor": {"dtype": "DT_FLOAT", "tensorShape": {"dim": [{"size": "16"}]}}}, "dtype": {"type": "DT_FLOAT"}}}, {"name": "StatefulPartitionedCall/sequential_1/conv2d_1/Conv2D/ReadVariableOp", "op": "Const", "attr": {"dtype": {"type": "DT_FLOAT"}, "value": {"tensor": {"dtype": "DT_FLOAT", "tensorShape": {"dim": [{"size": "3"}, {"size": "3"}, {"size": "16"}, {"size": "32"}]}}}}}, {"name": "StatefulPartitionedCall/sequential_1/conv2d_1/BiasAdd/ReadVariableOp", "op": "Const", "attr": {"dtype": {"type": "DT_FLOAT"}, "value": {"tensor": {"dtype": "DT_FLOAT", "tensorShape": {"dim": [{"size": "32"}]}}}}}, {"name": "StatefulPartitionedCall/sequential_1/conv2d_2/Conv2D/ReadVariableOp", "op": "Const", "attr": {"dtype": {"type": "DT_FLOAT"}, "value": {"tensor": {"dtype": "DT_FLOAT", "tensorShape": {"dim": [{"size": "3"}, {"size": "3"}, {"size": "32"}, {"size": "64"}]}}}}}, {"name": "StatefulPartitionedCall/sequential_1/conv2d_2/BiasAdd/ReadVariableOp", "op": "Const", "attr": {"dtype": {"type": "DT_FLOAT"}, "value": {"tensor": {"dtype": "DT_FLOAT", "tensorShape": {"dim": [{"size": "64"}]}}}}}, {"name": "StatefulPartitionedCall/sequential_1/conv2d_3/Conv2D/ReadVariableOp", "op": "Const", "attr": {"value": {"tensor": {"dtype": "DT_FLOAT", "tensorShape": {"dim": [{"size": "3"}, {"size": "3"}, {"size": "64"}, {"size": "128"}]}}}, "dtype": {"type": "DT_FLOAT"}}}, {"name": "StatefulPartitionedCall/sequential_1/conv2d_3/BiasAdd/ReadVariableOp", "op": "Const", "attr": {"dtype": {"type": "DT_FLOAT"}, "value": {"tensor": {"dtype": "DT_FLOAT", "tensorShape": {"dim": [{"size": "128"}]}}}}}, {"name": "StatefulPartitionedCall/sequential_1/conv2d_4/Conv2D/ReadVariableOp", "op": "Const", "attr": {"dtype": {"type": "DT_FLOAT"}, "value": {"tensor": {"dtype": "DT_FLOAT", "tensorShape": {"dim": [{"size": "3"}, {"size": "3"}, {"size": "128"}, {"size": "256"}]}}}}}, {"name": "StatefulPartitionedCall/sequential_1/conv2d_4/BiasAdd/ReadVariableOp", "op": "Const", "attr": {"dtype": {"type": "DT_FLOAT"}, "value": {"tensor": {"dtype": "DT_FLOAT", "tensorShape": {"dim": [{"size": "256"}]}}}}}, {"name": "StatefulPartitionedCall/sequential_1/flatten/Const", "op": "Const", "attr": {"value": {"tensor": {"dtype": "DT_INT32", "tensorShape": {"dim": [{"size": "2"}]}}}, "dtype": {"type": "DT_INT32"}}}, {"name": "StatefulPartitionedCall/sequential_1/dense/MatMul/ReadVariableOp", "op": "Const", "attr": {"dtype": {"type": "DT_FLOAT"}, "value": {"tensor": {"dtype": "DT_FLOAT", "tensorShape": {"dim": [{"size": "2304"}, {"size": "512"}]}}}}}, {"name": "StatefulPartitionedCall/sequential_1/dense/BiasAdd/ReadVariableOp", "op": "Const", "attr": {"value": {"tensor": {"dtype": "DT_FLOAT", "tensorShape": {"dim": [{"size": "512"}]}}}, "dtype": {"type": "DT_FLOAT"}}}, {"name": "StatefulPartitionedCall/sequential_1/dense_1/MatMul/ReadVariableOp", "op": "Const", "attr": {"dtype": {"type": "DT_FLOAT"}, "value": {"tensor": {"dtype": "DT_FLOAT", "tensorShape": {"dim": [{"size": "512"}, {"size": "512"}]}}}}}, {"name": "StatefulPartitionedCall/sequential_1/dense_1/BiasAdd/ReadVariableOp", "op": "Const", "attr": {"value": {"tensor": {"dtype": "DT_FLOAT", "tensorShape": {"dim": [{"size": "512"}]}}}, "dtype": {"type": "DT_FLOAT"}}}, {"name": "StatefulPartitionedCall/sequential_1/dense_2/MatMul/ReadVariableOp", "op": "Const", "attr": {"dtype": {"type": "DT_FLOAT"}, "value": {"tensor": {"dtype": "DT_FLOAT", "tensorShape": {"dim": [{"size": "512"}, {"size": "4"}]}}}}}, {"name": "StatefulPartitionedCall/sequential_1/dense_2/BiasAdd/ReadVariableOp", "op": "Const", "attr": {"dtype": {"type": "DT_FLOAT"}, "value": {"tensor": {"dtype": "DT_FLOAT", "tensorShape": {"dim": [{"size": "4"}]}}}}}, {"name": "random_flip_1_input", "op": "Placeholder", "attr": {"shape": {"shape": {"dim": [{"size": "-1"}, {"size": "150"}, {"size": "150"}, {"size": "3"}]}}, "dtype": {"type": "DT_FLOAT"}}}, {"name": "StatefulPartitionedCall/sequential_1/random_crop_1/Shape", "op": "Shape", "input": ["random_flip_1_input"], "attr": {"T": {"type": "DT_FLOAT"}, "out_type": {"type": "DT_INT32"}}}, {"name": "StatefulPartitionedCall/sequential_1/random_crop_1/strided_slice_1", "op": "StridedSlice", "input": ["StatefulPartitionedCall/sequential_1/random_crop_1/Shape", "StatefulPartitionedCall/sequential_1/random_crop_1/strided_slice_1/stack", "StatefulPartitionedCall/sequential_1/random_crop_1/strided_slice_1/stack_1", "StatefulPartitionedCall/sequential_1/random_crop_1/strided_slice_1/stack_2"], "attr": {"begin_mask": {"i": "0"}, "ellipsis_mask": {"i": "0"}, "end_mask": {"i": "0"}, "Index": {"type": "DT_INT32"}, "T": {"type": "DT_INT32"}, "shrink_axis_mask": {"i": "1"}, "new_axis_mask": {"i": "0"}}}, {"name": "StatefulPartitionedCall/sequential_1/random_crop_1/strided_slice", "op": "StridedSlice", "input": ["StatefulPartitionedCall/sequential_1/random_crop_1/Shape", "StatefulPartitionedCall/sequential_1/random_crop_1/strided_slice/stack", "StatefulPartitionedCall/sequential_1/random_crop_1/strided_slice/stack_1", "StatefulPartitionedCall/sequential_1/random_crop_1/strided_slice/stack_2"], "attr": {"begin_mask": {"i": "0"}, "end_mask": {"i": "0"}, "Index": {"type": "DT_INT32"}, "shrink_axis_mask": {"i": "1"}, "T": {"type": "DT_INT32"}, "ellipsis_mask": {"i": "0"}, "new_axis_mask": {"i": "0"}}}, {"name": "StatefulPartitionedCall/sequential_1/random_crop_1/truediv/Cast_1", "op": "Cast", "input": ["StatefulPartitionedCall/sequential_1/random_crop_1/strided_slice_1"], "attr": {"SrcT": {"type": "DT_INT32"}, "DstT": {"type": "DT_DOUBLE"}, "Truncate": {"b": false}}}, {"name": "StatefulPartitionedCall/sequential_1/random_crop_1/truediv/Cast", "op": "Cast", "input": ["StatefulPartitionedCall/sequential_1/random_crop_1/strided_slice"], "attr": {"DstT": {"type": "DT_DOUBLE"}, "Truncate": {"b": false}, "SrcT": {"type": "DT_INT32"}}}, {"name": "StatefulPartitionedCall/sequential_1/random_crop_1/truediv", "op": "RealDiv", "input": ["StatefulPartitionedCall/sequential_1/random_crop_1/truediv/Cast", "StatefulPartitionedCall/sequential_1/random_crop_1/truediv/Cast_1"], "attr": {"T": {"type": "DT_DOUBLE"}}}, {"name": "StatefulPartitionedCall/sequential_1/random_crop_1/Greater", "op": "Greater", "input": ["StatefulPartitionedCall/sequential_1/random_crop_1/truediv", "StatefulPartitionedCall/sequential_1/random_crop_1/Greater/y"], "attr": {"T": {"type": "DT_DOUBLE"}}}, {"name": "StatefulPartitionedCall/sequential_1/random_crop_1/cond", "op": "StatelessIf", "input": ["StatefulPartitionedCall/sequential_1/random_crop_1/Greater", "StatefulPartitionedCall/sequential_1/random_crop_1/strided_slice", "StatefulPartitionedCall/sequential_1/random_crop_1/strided_slice_1"], "attr": {"_lower_using_switch_merge": {"b": false}, "output_shapes": {"list": {"shape": [{}]}}, "_read_only_resource_inputs": {"list": {}}, "Tin": {"list": {"type": ["DT_INT32", "DT_INT32"]}}, "else_branch": {"func": {"name": "__inference_sequential_1_random_crop_1_cond_false_658_5551"}}, "Tout": {"list": {"type": ["DT_INT32"]}}, "then_branch": {"func": {"name": "__inference_sequential_1_random_crop_1_cond_true_657_4687"}}, "Tcond": {"type": "DT_BOOL"}}}, {"name": "StatefulPartitionedCall/sequential_1/random_crop_1/cond_1", "op": "StatelessIf", "input": ["StatefulPartitionedCall/sequential_1/random_crop_1/Greater", "StatefulPartitionedCall/sequential_1/random_crop_1/strided_slice_1", "StatefulPartitionedCall/sequential_1/random_crop_1/strided_slice"], "attr": {"_read_only_resource_inputs": {"list": {}}, "Tcond": {"type": "DT_BOOL"}, "Tout": {"list": {"type": ["DT_INT32"]}}, "else_branch": {"func": {"name": "__inference_sequential_1_random_crop_1_cond_1_false_677_5815"}}, "then_branch": {"func": {"name": "__inference_sequential_1_random_crop_1_cond_1_true_676_4709"}}, "Tin": {"list": {"type": ["DT_INT32", "DT_INT32"]}}, "_lower_using_switch_merge": {"b": false}, "output_shapes": {"list": {"shape": [{}]}}}}, {"name": "StatefulPartitionedCall/sequential_1/random_crop_1/sub", "op": "Sub", "input": ["StatefulPartitionedCall/sequential_1/random_crop_1/cond", "StatefulPartitionedCall/sequential_1/random_crop_1/sub/y"], "attr": {"T": {"type": "DT_INT32"}}}, {"name": "StatefulPartitionedCall/sequential_1/random_crop_1/stack", "op": "Pack", "input": ["StatefulPartitionedCall/sequential_1/random_crop_1/cond", "StatefulPartitionedCall/sequential_1/random_crop_1/cond_1"], "attr": {"T": {"type": "DT_INT32"}, "N": {"i": "2"}, "axis": {"i": "0"}}}, {"name": "StatefulPartitionedCall/sequential_1/random_crop_1/sub_1", "op": "Sub", "input": ["StatefulPartitionedCall/sequential_1/random_crop_1/cond_1", "StatefulPartitionedCall/sequential_1/random_crop_1/sub_1/y"], "attr": {"T": {"type": "DT_INT32"}}}, {"name": "StatefulPartitionedCall/sequential_1/random_crop_1/truediv_1/Cast", "op": "Cast", "input": ["StatefulPartitionedCall/sequential_1/random_crop_1/sub"], "attr": {"Truncate": {"b": false}, "SrcT": {"type": "DT_INT32"}, "DstT": {"type": "DT_DOUBLE"}}}, {"name": "StatefulPartitionedCall/sequential_1/random_crop_1/resize/ResizeBilinear", "op": "ResizeBilinear", "input": ["random_flip_1_input", "StatefulPartitionedCall/sequential_1/random_crop_1/stack"], "attr": {"align_corners": {"b": false}, "half_pixel_centers": {"b": true}, "T": {"type": "DT_FLOAT"}}}, {"name": "StatefulPartitionedCall/sequential_1/random_crop_1/truediv_2/Cast", "op": "Cast", "input": ["StatefulPartitionedCall/sequential_1/random_crop_1/sub_1"], "attr": {"DstT": {"type": "DT_DOUBLE"}, "SrcT": {"type": "DT_INT32"}, "Truncate": {"b": false}}}, {"name": "StatefulPartitionedCall/sequential_1/random_crop_1/truediv_1", "op": "Mul", "input": ["StatefulPartitionedCall/sequential_1/random_crop_1/truediv_1/Cast", "ConstantFolding/StatefulPartitionedCall/sequential_1/random_crop_1/truediv_1_recip"], "attr": {"T": {"type": "DT_DOUBLE"}}}, {"name": "StatefulPartitionedCall/sequential_1/random_crop_1/truediv_2", "op": "Mul", "input": ["StatefulPartitionedCall/sequential_1/random_crop_1/truediv_2/Cast", "ConstantFolding/StatefulPartitionedCall/sequential_1/random_crop_1/truediv_2_recip"], "attr": {"T": {"type": "DT_DOUBLE"}}}, {"name": "StatefulPartitionedCall/sequential_1/random_crop_1/Cast", "op": "Cast", "input": ["StatefulPartitionedCall/sequential_1/random_crop_1/truediv_1"], "attr": {"Truncate": {"b": false}, "SrcT": {"type": "DT_DOUBLE"}, "DstT": {"type": "DT_INT32"}}}, {"name": "StatefulPartitionedCall/sequential_1/random_crop_1/Cast_1", "op": "Cast", "input": ["StatefulPartitionedCall/sequential_1/random_crop_1/truediv_2"], "attr": {"Truncate": {"b": false}, "DstT": {"type": "DT_INT32"}, "SrcT": {"type": "DT_DOUBLE"}}}, {"name": "StatefulPartitionedCall/sequential_1/random_crop_1/stack_1", "op": "Pack", "input": ["StatefulPartitionedCall/sequential_1/random_crop_1/stack_1/0", "StatefulPartitionedCall/sequential_1/random_crop_1/Cast", "StatefulPartitionedCall/sequential_1/random_crop_1/Cast_1", "StatefulPartitionedCall/sequential_1/random_crop_1/stack_1/3"], "attr": {"axis": {"i": "0"}, "T": {"type": "DT_INT32"}, "N": {"i": "4"}}}, {"name": "StatefulPartitionedCall/sequential_1/random_crop_1/Slice", "op": "Slice", "input": ["StatefulPartitionedCall/sequential_1/random_crop_1/resize/ResizeBilinear", "StatefulPartitionedCall/sequential_1/random_crop_1/stack_1", "StatefulPartitionedCall/sequential_1/random_crop_1/stack_2"], "attr": {"T": {"type": "DT_FLOAT"}, "Index": {"type": "DT_INT32"}}}, {"name": "StatefulPartitionedCall/sequential_1/conv2d/Relu", "op": "_FusedConv2D", "input": ["StatefulPartitionedCall/sequential_1/random_crop_1/Slice", "StatefulPartitionedCall/sequential_1/conv2d/Conv2D/ArithmeticOptimizer/FoldMultiplyIntoConv_scaled_StatefulPartitionedCall/sequential_1/conv2d/Conv2D_ReadVariableOp", "StatefulPartitionedCall/sequential_1/conv2d/BiasAdd/ReadVariableOp"], "device": "/device:CPU:0", "attr": {"data_format": {"s": "TkhXQw=="}, "num_args": {"i": "1"}, "explicit_paddings": {"list": {}}, "fused_ops": {"list": {"s": ["Qmlhc0FkZA==", "UmVsdQ=="]}}, "T": {"type": "DT_FLOAT"}, "epsilon": {"f": 0.0}, "strides": {"list": {"i": ["1", "1", "1", "1"]}}, "padding": {"s": "U0FNRQ=="}, "dilations": {"list": {"i": ["1", "1", "1", "1"]}}, "use_cudnn_on_gpu": {"b": true}}}, {"name": "StatefulPartitionedCall/sequential_1/max_pooling2d/MaxPool", "op": "MaxPool", "input": ["StatefulPartitionedCall/sequential_1/conv2d/Relu"], "attr": {"strides": {"list": {"i": ["1", "2", "2", "1"]}}, "ksize": {"list": {"i": ["1", "2", "2", "1"]}}, "T": {"type": "DT_FLOAT"}, "padding": {"s": "VkFMSUQ="}, "explicit_paddings": {"list": {}}, "data_format": {"s": "TkhXQw=="}}}, {"name": "StatefulPartitionedCall/sequential_1/conv2d_1/Relu", "op": "_FusedConv2D", "input": ["StatefulPartitionedCall/sequential_1/max_pooling2d/MaxPool", "StatefulPartitionedCall/sequential_1/conv2d_1/Conv2D/ReadVariableOp", "StatefulPartitionedCall/sequential_1/conv2d_1/BiasAdd/ReadVariableOp"], "device": "/device:CPU:0", "attr": {"data_format": {"s": "TkhXQw=="}, "explicit_paddings": {"list": {}}, "use_cudnn_on_gpu": {"b": true}, "num_args": {"i": "1"}, "T": {"type": "DT_FLOAT"}, "fused_ops": {"list": {"s": ["Qmlhc0FkZA==", "UmVsdQ=="]}}, "padding": {"s": "U0FNRQ=="}, "strides": {"list": {"i": ["1", "1", "1", "1"]}}, "epsilon": {"f": 0.0}, "dilations": {"list": {"i": ["1", "1", "1", "1"]}}}}, {"name": "StatefulPartitionedCall/sequential_1/max_pooling2d_1/MaxPool", "op": "MaxPool", "input": ["StatefulPartitionedCall/sequential_1/conv2d_1/Relu"], "attr": {"data_format": {"s": "TkhXQw=="}, "ksize": {"list": {"i": ["1", "2", "2", "1"]}}, "padding": {"s": "VkFMSUQ="}, "explicit_paddings": {"list": {}}, "T": {"type": "DT_FLOAT"}, "strides": {"list": {"i": ["1", "2", "2", "1"]}}}}, {"name": "StatefulPartitionedCall/sequential_1/conv2d_2/Relu", "op": "_FusedConv2D", "input": ["StatefulPartitionedCall/sequential_1/max_pooling2d_1/MaxPool", "StatefulPartitionedCall/sequential_1/conv2d_2/Conv2D/ReadVariableOp", "StatefulPartitionedCall/sequential_1/conv2d_2/BiasAdd/ReadVariableOp"], "device": "/device:CPU:0", "attr": {"fused_ops": {"list": {"s": ["Qmlhc0FkZA==", "UmVsdQ=="]}}, "num_args": {"i": "1"}, "strides": {"list": {"i": ["1", "1", "1", "1"]}}, "padding": {"s": "U0FNRQ=="}, "explicit_paddings": {"list": {}}, "epsilon": {"f": 0.0}, "dilations": {"list": {"i": ["1", "1", "1", "1"]}}, "use_cudnn_on_gpu": {"b": true}, "data_format": {"s": "TkhXQw=="}, "T": {"type": "DT_FLOAT"}}}, {"name": "StatefulPartitionedCall/sequential_1/max_pooling2d_2/MaxPool", "op": "MaxPool", "input": ["StatefulPartitionedCall/sequential_1/conv2d_2/Relu"], "attr": {"T": {"type": "DT_FLOAT"}, "explicit_paddings": {"list": {}}, "data_format": {"s": "TkhXQw=="}, "padding": {"s": "VkFMSUQ="}, "strides": {"list": {"i": ["1", "2", "2", "1"]}}, "ksize": {"list": {"i": ["1", "2", "2", "1"]}}}}, {"name": "StatefulPartitionedCall/sequential_1/conv2d_3/Relu", "op": "_FusedConv2D", "input": ["StatefulPartitionedCall/sequential_1/max_pooling2d_2/MaxPool", "StatefulPartitionedCall/sequential_1/conv2d_3/Conv2D/ReadVariableOp", "StatefulPartitionedCall/sequential_1/conv2d_3/BiasAdd/ReadVariableOp"], "device": "/device:CPU:0", "attr": {"T": {"type": "DT_FLOAT"}, "epsilon": {"f": 0.0}, "use_cudnn_on_gpu": {"b": true}, "strides": {"list": {"i": ["1", "1", "1", "1"]}}, "data_format": {"s": "TkhXQw=="}, "explicit_paddings": {"list": {}}, "padding": {"s": "U0FNRQ=="}, "dilations": {"list": {"i": ["1", "1", "1", "1"]}}, "num_args": {"i": "1"}, "fused_ops": {"list": {"s": ["Qmlhc0FkZA==", "UmVsdQ=="]}}}}, {"name": "StatefulPartitionedCall/sequential_1/max_pooling2d_3/MaxPool", "op": "MaxPool", "input": ["StatefulPartitionedCall/sequential_1/conv2d_3/Relu"], "attr": {"strides": {"list": {"i": ["1", "2", "2", "1"]}}, "T": {"type": "DT_FLOAT"}, "ksize": {"list": {"i": ["1", "2", "2", "1"]}}, "padding": {"s": "VkFMSUQ="}, "data_format": {"s": "TkhXQw=="}, "explicit_paddings": {"list": {}}}}, {"name": "StatefulPartitionedCall/sequential_1/conv2d_4/Relu", "op": "_FusedConv2D", "input": ["StatefulPartitionedCall/sequential_1/max_pooling2d_3/MaxPool", "StatefulPartitionedCall/sequential_1/conv2d_4/Conv2D/ReadVariableOp", "StatefulPartitionedCall/sequential_1/conv2d_4/BiasAdd/ReadVariableOp"], "device": "/device:CPU:0", "attr": {"strides": {"list": {"i": ["1", "1", "1", "1"]}}, "dilations": {"list": {"i": ["1", "1", "1", "1"]}}, "padding": {"s": "U0FNRQ=="}, "data_format": {"s": "TkhXQw=="}, "T": {"type": "DT_FLOAT"}, "fused_ops": {"list": {"s": ["Qmlhc0FkZA==", "UmVsdQ=="]}}, "explicit_paddings": {"list": {}}, "use_cudnn_on_gpu": {"b": true}, "num_args": {"i": "1"}, "epsilon": {"f": 0.0}}}, {"name": "StatefulPartitionedCall/sequential_1/max_pooling2d_4/MaxPool", "op": "MaxPool", "input": ["StatefulPartitionedCall/sequential_1/conv2d_4/Relu"], "attr": {"ksize": {"list": {"i": ["1", "2", "2", "1"]}}, "T": {"type": "DT_FLOAT"}, "data_format": {"s": "TkhXQw=="}, "padding": {"s": "VkFMSUQ="}, "explicit_paddings": {"list": {}}, "strides": {"list": {"i": ["1", "2", "2", "1"]}}}}, {"name": "StatefulPartitionedCall/sequential_1/flatten/Reshape", "op": "Reshape", "input": ["StatefulPartitionedCall/sequential_1/max_pooling2d_4/MaxPool", "StatefulPartitionedCall/sequential_1/flatten/Const"], "attr": {"T": {"type": "DT_FLOAT"}, "Tshape": {"type": "DT_INT32"}}}, {"name": "StatefulPartitionedCall/sequential_1/dense/Relu", "op": "_FusedMatMul", "input": ["StatefulPartitionedCall/sequential_1/flatten/Reshape", "StatefulPartitionedCall/sequential_1/dense/MatMul/ReadVariableOp", "StatefulPartitionedCall/sequential_1/dense/BiasAdd/ReadVariableOp"], "device": "/device:CPU:0", "attr": {"fused_ops": {"list": {"s": ["Qmlhc0FkZA==", "UmVsdQ=="]}}, "num_args": {"i": "1"}, "transpose_a": {"b": false}, "transpose_b": {"b": false}, "epsilon": {"f": 0.0}, "T": {"type": "DT_FLOAT"}}}, {"name": "StatefulPartitionedCall/sequential_1/dense_1/Relu", "op": "_FusedMatMul", "input": ["StatefulPartitionedCall/sequential_1/dense/Relu", "StatefulPartitionedCall/sequential_1/dense_1/MatMul/ReadVariableOp", "StatefulPartitionedCall/sequential_1/dense_1/BiasAdd/ReadVariableOp"], "device": "/device:CPU:0", "attr": {"transpose_b": {"b": false}, "transpose_a": {"b": false}, "fused_ops": {"list": {"s": ["Qmlhc0FkZA==", "UmVsdQ=="]}}, "num_args": {"i": "1"}, "epsilon": {"f": 0.0}, "T": {"type": "DT_FLOAT"}}}, {"name": "StatefulPartitionedCall/sequential_1/dense_2/BiasAdd", "op": "_FusedMatMul", "input": ["StatefulPartitionedCall/sequential_1/dense_1/Relu", "StatefulPartitionedCall/sequential_1/dense_2/MatMul/ReadVariableOp", "StatefulPartitionedCall/sequential_1/dense_2/BiasAdd/ReadVariableOp"], "device": "/device:CPU:0", "attr": {"transpose_a": {"b": false}, "epsilon": {"f": 0.0}, "num_args": {"i": "1"}, "T": {"type": "DT_FLOAT"}, "fused_ops": {"list": {"s": ["Qmlhc0FkZA=="]}}, "transpose_b": {"b": false}}}, {"name": "Identity", "op": "Identity", "input": ["StatefulPartitionedCall/sequential_1/dense_2/BiasAdd"], "attr": {"T": {"type": "DT_FLOAT"}}}], "library": {"function": [{"signature": {"name": "__inference_sequential_1_random_crop_1_cond_false_658_5551", "inputArg": [{"name": "sequential_1_random_crop_1_cond_placeholder", "type": "DT_INT32"}, {"name": "sequential_1_random_crop_1_cond_placeholder_1", "type": "DT_INT32"}], "outputArg": [{"name": "sequential_1_random_crop_1_cond_identity", "type": "DT_INT32"}]}, "nodeDef": [{"name": "__inference_sequential_1_random_crop_1_cond_false_658_5551/sequential_1/random_crop_1/cond/Const", "op": "Const", "attr": {"value": {"tensor": {"dtype": "DT_INT32", "tensorShape": {}}}, "dtype": {"type": "DT_INT32"}}}], "ret": {"sequential_1_random_crop_1_cond_identity": "sequential_1/random_crop_1/cond/Const:output:0"}, "attr": {"_construction_context": {"s": "a0VhZ2VyUnVudGltZQ=="}}, "argAttr": {"1": {"attr": {"_output_shapes": {"list": {"shape": [{}]}}}}, "0": {"attr": {"_output_shapes": {"list": {"shape": [{}]}}}}}}, {"signature": {"name": "__inference_sequential_1_random_crop_1_cond_true_657_4687", "inputArg": [{"name": "sequential_1_random_crop_1_cond_mul_sequential_1_random_crop_1_strided_slice", "type": "DT_INT32"}, {"name": "sequential_1_random_crop_1_cond_truediv_cast_1_sequential_1_random_crop_1_strided_slice_1", "type": "DT_INT32"}], "outputArg": [{"name": "sequential_1_random_crop_1_cond_identity", "type": "DT_INT32"}]}, "nodeDef": [{"name": "__inference_sequential_1_random_crop_1_cond_true_657_4687/sequential_1/random_crop_1/cond/mul/x", "op": "Const", "attr": {"dtype": {"type": "DT_INT32"}, "value": {"tensor": {"dtype": "DT_INT32", "tensorShape": {}}}}}, {"name": "sequential_1/random_crop_1/cond/truediv/Cast_1", "op": "Cast", "input": ["sequential_1_random_crop_1_cond_truediv_cast_1_sequential_1_random_crop_1_strided_slice_1"], "attr": {"Truncate": {"b": false}, "SrcT": {"type": "DT_INT32"}, "DstT": {"type": "DT_DOUBLE"}}}, {"name": "sequential_1/random_crop_1/cond/mul", "op": "Mul", "input": ["__inference_sequential_1_random_crop_1_cond_true_657_4687/sequential_1/random_crop_1/cond/mul/x:output:0", "sequential_1_random_crop_1_cond_mul_sequential_1_random_crop_1_strided_slice"], "attr": {"T": {"type": "DT_INT32"}}}, {"name": "sequential_1/random_crop_1/cond/truediv/Cast", "op": "Cast", "input": ["sequential_1/random_crop_1/cond/mul:z:0"], "attr": {"Truncate": {"b": false}, "DstT": {"type": "DT_DOUBLE"}, "SrcT": {"type": "DT_INT32"}}}, {"name": "sequential_1/random_crop_1/cond/truediv", "op": "RealDiv", "input": ["sequential_1/random_crop_1/cond/truediv/Cast:y:0", "sequential_1/random_crop_1/cond/truediv/Cast_1:y:0"], "attr": {"T": {"type": "DT_DOUBLE"}}}, {"name": "sequential_1/random_crop_1/cond/Cast", "op": "Cast", "input": ["sequential_1/random_crop_1/cond/truediv:z:0"], "attr": {"SrcT": {"type": "DT_DOUBLE"}, "DstT": {"type": "DT_INT32"}, "Truncate": {"b": false}}}], "ret": {"sequential_1_random_crop_1_cond_identity": "sequential_1/random_crop_1/cond/Cast:y:0"}, "attr": {"_construction_context": {"s": "a0VhZ2VyUnVudGltZQ=="}}, "argAttr": {"0": {"attr": {"_output_shapes": {"list": {"shape": [{}]}}}}, "1": {"attr": {"_output_shapes": {"list": {"shape": [{}]}}}}}}, {"signature": {"name": "__inference_sequential_1_random_crop_1_cond_1_true_676_4709", "inputArg": [{"name": "sequential_1_random_crop_1_cond_1_placeholder", "type": "DT_INT32"}, {"name": "sequential_1_random_crop_1_cond_1_placeholder_1", "type": "DT_INT32"}], "outputArg": [{"name": "sequential_1_random_crop_1_cond_1_identity", "type": "DT_INT32"}]}, "nodeDef": [{"name": "__inference_sequential_1_random_crop_1_cond_1_true_676_4709/sequential_1/random_crop_1/cond_1/Const", "op": "Const", "attr": {"value": {"tensor": {"dtype": "DT_INT32", "tensorShape": {}}}, "dtype": {"type": "DT_INT32"}}}], "ret": {"sequential_1_random_crop_1_cond_1_identity": "sequential_1/random_crop_1/cond_1/Const:output:0"}, "attr": {"_construction_context": {"s": "a0VhZ2VyUnVudGltZQ=="}}, "argAttr": {"1": {"attr": {"_output_shapes": {"list": {"shape": [{}]}}}}, "0": {"attr": {"_output_shapes": {"list": {"shape": [{}]}}}}}}, {"signature": {"name": "__inference_sequential_1_random_crop_1_cond_1_false_677_5815", "inputArg": [{"name": "sequential_1_random_crop_1_cond_1_mul_sequential_1_random_crop_1_strided_slice_1", "type": "DT_INT32"}, {"name": "sequential_1_random_crop_1_cond_1_truediv_cast_1_sequential_1_random_crop_1_strided_slice", "type": "DT_INT32"}], "outputArg": [{"name": "sequential_1_random_crop_1_cond_1_identity", "type": "DT_INT32"}]}, "nodeDef": [{"name": "__inference_sequential_1_random_crop_1_cond_1_false_677_5815/sequential_1/random_crop_1/cond_1/mul/x", "op": "Const", "attr": {"value": {"tensor": {"dtype": "DT_INT32", "tensorShape": {}}}, "dtype": {"type": "DT_INT32"}}}, {"name": "sequential_1/random_crop_1/cond_1/truediv/Cast_1", "op": "Cast", "input": ["sequential_1_random_crop_1_cond_1_truediv_cast_1_sequential_1_random_crop_1_strided_slice"], "attr": {"DstT": {"type": "DT_DOUBLE"}, "SrcT": {"type": "DT_INT32"}, "Truncate": {"b": false}}}, {"name": "sequential_1/random_crop_1/cond_1/mul", "op": "Mul", "input": ["__inference_sequential_1_random_crop_1_cond_1_false_677_5815/sequential_1/random_crop_1/cond_1/mul/x:output:0", "sequential_1_random_crop_1_cond_1_mul_sequential_1_random_crop_1_strided_slice_1"], "attr": {"T": {"type": "DT_INT32"}}}, {"name": "sequential_1/random_crop_1/cond_1/truediv/Cast", "op": "Cast", "input": ["sequential_1/random_crop_1/cond_1/mul:z:0"], "attr": {"Truncate": {"b": false}, "SrcT": {"type": "DT_INT32"}, "DstT": {"type": "DT_DOUBLE"}}}, {"name": "sequential_1/random_crop_1/cond_1/truediv", "op": "RealDiv", "input": ["sequential_1/random_crop_1/cond_1/truediv/Cast:y:0", "sequential_1/random_crop_1/cond_1/truediv/Cast_1:y:0"], "attr": {"T": {"type": "DT_DOUBLE"}}}, {"name": "sequential_1/random_crop_1/cond_1/Cast", "op": "Cast", "input": ["sequential_1/random_crop_1/cond_1/truediv:z:0"], "attr": {"DstT": {"type": "DT_INT32"}, "SrcT": {"type": "DT_DOUBLE"}, "Truncate": {"b": false}}}], "ret": {"sequential_1_random_crop_1_cond_1_identity": "sequential_1/random_crop_1/cond_1/Cast:y:0"}, "attr": {"_construction_context": {"s": "a0VhZ2VyUnVudGltZQ=="}}, "argAttr": {"1": {"attr": {"_output_shapes": {"list": {"shape": [{}]}}}}, "0": {"attr": {"_output_shapes": {"list": {"shape": [{}]}}}}}}]}, "versions": {"producer": 808, "minConsumer": 12}}, "weightsManifest": [{"paths": ["group1-shard1of2.bin", "group1-shard2of2.bin"], "weights": [{"name": "StatefulPartitionedCall/sequential_1/random_crop_1/stack_1/0", "shape": [], "dtype": "int32"}, {"name": "StatefulPartitionedCall/sequential_1/random_crop_1/sub/y", "shape": [], "dtype": "int32"}, {"name": "ConstantFolding/StatefulPartitionedCall/sequential_1/random_crop_1/truediv_1_recip", "shape": [], "dtype": "float32"}, {"name": "StatefulPartitionedCall/sequential_1/random_crop_1/Greater/y", "shape": [], "dtype": "float32"}, {"name": "StatefulPartitionedCall/sequential_1/random_crop_1/strided_slice_1/stack", "shape": [1], "dtype": "int32"}, {"name": "StatefulPartitionedCall/sequential_1/random_crop_1/strided_slice_1/stack_1", "shape": [1], "dtype": "int32"}, {"name": "StatefulPartitionedCall/sequential_1/random_crop_1/strided_slice_1/stack_2", "shape": [1], "dtype": "int32"}, {"name": "StatefulPartitionedCall/sequential_1/random_crop_1/strided_slice/stack", "shape": [1], "dtype": "int32"}, {"name": "StatefulPartitionedCall/sequential_1/random_crop_1/strided_slice/stack_1", "shape": [1], "dtype": "int32"}, {"name": "StatefulPartitionedCall/sequential_1/random_crop_1/strided_slice/stack_2", "shape": [1], "dtype": "int32"}, {"name": "StatefulPartitionedCall/sequential_1/random_crop_1/sub_1/y", "shape": [], "dtype": "int32"}, {"name": "ConstantFolding/StatefulPartitionedCall/sequential_1/random_crop_1/truediv_2_recip", "shape": [], "dtype": "float32"}, {"name": "StatefulPartitionedCall/sequential_1/random_crop_1/stack_1/3", "shape": [], "dtype": "int32"}, {"name": "StatefulPartitionedCall/sequential_1/random_crop_1/stack_2", "shape": [4], "dtype": "int32"}, {"name": "StatefulPartitionedCall/sequential_1/conv2d/Conv2D/ArithmeticOptimizer/FoldMultiplyIntoConv_scaled_StatefulPartitionedCall/sequential_1/conv2d/Conv2D_ReadVariableOp", "shape": [3, 3, 3, 16], "dtype": "float32"}, {"name": "StatefulPartitionedCall/sequential_1/conv2d/BiasAdd/ReadVariableOp", "shape": [16], "dtype": "float32"}, {"name": "StatefulPartitionedCall/sequential_1/conv2d_1/Conv2D/ReadVariableOp", "shape": [3, 3, 16, 32], "dtype": "float32"}, {"name": "StatefulPartitionedCall/sequential_1/conv2d_1/BiasAdd/ReadVariableOp", "shape": [32], "dtype": "float32"}, {"name": "StatefulPartitionedCall/sequential_1/conv2d_2/Conv2D/ReadVariableOp", "shape": [3, 3, 32, 64], "dtype": "float32"}, {"name": "StatefulPartitionedCall/sequential_1/conv2d_2/BiasAdd/ReadVariableOp", "shape": [64], "dtype": "float32"}, {"name": "StatefulPartitionedCall/sequential_1/conv2d_3/Conv2D/ReadVariableOp", "shape": [3, 3, 64, 128], "dtype": "float32"}, {"name": "StatefulPartitionedCall/sequential_1/conv2d_3/BiasAdd/ReadVariableOp", "shape": [128], "dtype": "float32"}, {"name": "StatefulPartitionedCall/sequential_1/conv2d_4/Conv2D/ReadVariableOp", "shape": [3, 3, 128, 256], "dtype": "float32"}, {"name": "StatefulPartitionedCall/sequential_1/conv2d_4/BiasAdd/ReadVariableOp", "shape": [256], "dtype": "float32"}, {"name": "StatefulPartitionedCall/sequential_1/flatten/Const", "shape": [2], "dtype": "int32"}, {"name": "StatefulPartitionedCall/sequential_1/dense/MatMul/ReadVariableOp", "shape": [2304, 512], "dtype": "float32"}, {"name": "StatefulPartitionedCall/sequential_1/dense/BiasAdd/ReadVariableOp", "shape": [512], "dtype": "float32"}, {"name": "StatefulPartitionedCall/sequential_1/dense_1/MatMul/ReadVariableOp", "shape": [512, 512], "dtype": "float32"}, {"name": "StatefulPartitionedCall/sequential_1/dense_1/BiasAdd/ReadVariableOp", "shape": [512], "dtype": "float32"}, {"name": "StatefulPartitionedCall/sequential_1/dense_2/MatMul/ReadVariableOp", "shape": [512, 4], "dtype": "float32"}, {"name": "StatefulPartitionedCall/sequential_1/dense_2/BiasAdd/ReadVariableOp", "shape": [4], "dtype": "float32"}, {"name": "__inference_sequential_1_random_crop_1_cond_false_658_5551/sequential_1/random_crop_1/cond/Const", "shape": [], "dtype": "int32"}, {"name": "__inference_sequential_1_random_crop_1_cond_true_657_4687/sequential_1/random_crop_1/cond/mul/x", "shape": [], "dtype": "int32"}, {"name": "__inference_sequential_1_random_crop_1_cond_1_true_676_4709/sequential_1/random_crop_1/cond_1/Const", "shape": [], "dtype": "int32"}, {"name": "__inference_sequential_1_random_crop_1_cond_1_false_677_5815/sequential_1/random_crop_1/cond_1/mul/x", "shape": [], "dtype": "int32"}]}]}